app/src/main/assets/music_classifier.tflite (tflite, 66960 bytes, 10 tensors)

arith.constant f4 [256]
00000000: ee23 a53b 2953 97bb 7d03 4cbb eac5 623a
00000010: 0124 19ba ca94 a93b d641 41ba 5c7c 8a3b
00000020: e070 4239 05fe 0c3c 56cf bc3a 5533 54bb
00000030: 4ee4 c8ba 1292 e2ba c7d1 96bb fffe cebb
00000040: 2729 c3bb 2487 c839 bc08 1b3b 6ac8 973b
00000050: 5c91 bd3a 7aa5 e33a d6df 72bb 4b5f 873b
00000060: ab2d 0d3c cb0b 153a 5261 d9ba 4c28 50bb
00000070: 44a4 6c3b 3fe4 513b fa28 7fbb 4aa4 c1ba
00000080: dd97 d73a f973 943a ccd7 e8b8 ea1c 62ba
00000090: 1cee 67bc a702 993b c706 a4bb 52cc bb3b
000000a0: 692d 623b 9b98 4d3c 5a3a 8d3a 01c0 08bc
000000b0: ca0a c33b 7e67 a13b 4b70 7cbb dae8 7cbb
000000c0: 5db4 5e3b 3733 22b9 2cff aa3b 4002 33ba
000000d0: 6dc9 8cba f1af 12bc 1f4b d4bb 4159 9e3b
000000e0: be6a 1a3b 6aec 023a faa2 85ba 8548 c5bb
000000f0: acc7 ccbb 787c 01bc 951b 24ba b818 6bbb
00000100: faef c3b9 4851 4d3b 13cb 46bc 396d 523b
00000110: 7954 003c 0f1d b43b 1509 ea3b 0b30 22bc
00000120: 9607 bc3a e3d6 e53a 3271 6a3a 9f15 c23b
00000130: 5451 123b b8d2 1ebb 475f 783b 56d8 89ba
00000140: 0905 97bb e257 1d3a 5426 e2bb eb33 f939
00000150: c1bd 193c 4160 173c e0fe 803b 6d58 263a
00000160: 4a27 baba 36c5 a73b c70f f03b e6cc 443b
00000170: c168 03bb 4fb6 353b e7b9 083c dfe6 89ba
00000180: 9ac0 d53b 3958 b5bb 1a5e 31bc f3be debb
00000190: ff92 933b c5a8 c53b ffb5 f1bb 1a8e 333a
000001a0: 125c a43a 6315 e53b b23a a1bb 3cf4 e1bb
000001b0: e86b abbb f0d5 6eb7 913d 5bbb 5e1a dc3b
000001c0: 0982 a4ba b15e 84bb ffb8 9a3b 6dd1 293b
000001d0: 5691 ccbb 2a52 843b 78f8 173b 15f2 a53a
000001e0: 2819 813b 67c4 8bbb 60f8 52bb 0081 2b3a
000001f0: df2b a6ba ca0b a93b ec7b d83b 8ed3 433b
00000200: 474d dc3a 1a61 9ebb 7793 8cbb 82df 003b
00000210: d987 2e39 ccbd 4f3b 5411 4dba 8a0e 55bb
00000220: 5bab 8c3a 9903 743b 6ef8 ce3b 099f c3bb
00000230: 8514 a5bb ea03 7dba 2736 643b 49b3 983b
00000240: 5163 efbb 8c39 a9bb 39c5 c73a a23d 643a
00000250: 36df b9ba b374 693b 65d7 1abb fc5c 203b
00000260: 58f5 5239 d57b 30bc 7e3a 76ba b5ad b73a
00000270: 263d 28bb 9acd b93b 31cd 3dba ab11 d4bb
00000280: c411 493b 364b d3bb 966c f8ba 353b 4fbb
00000290: 2d96 043c 2176 683b 56ac 0bbc 5d30 e8bb
000002a0: 70c3 12b7 ab48 e6bb d04d f13b 39f8 e7bb
000002b0: 9348 173c df8f e83b 2814 633b ce29 b5bb
000002c0: 304d 1c3c 223f 25bc db2d f43b 9019 49bb
000002d0: 6ed8 3fbb 45f8 04bc 4552 893b 805d a03b
000002e0: 9a3d 61bb 752d e0bb 2ebf cebb b04e abbb
000002f0: f2d9 ab38 dc62 99bb 5dc6 0a3b 32c7 653a
00000300: b870 a73b e494 0a3a 4d06 dbbb 11d2 9fbb
00000310: 6f5b 1dbc 8b9e 6ebb b5c2 80ba 292b 57ba
00000320: 8a30 423a 739a ab3a 8e93 3f3b 9b69 9ebb
00000330: d98f 133b caff 533b 2a29 8c3b e7f8 b53b
00000340: 3a6a 41bb a400 61bb bed3 023a 0b3e d7ba
00000350: 25b2 d83b 8812 ac3a 070c 263a 11ad cd3a
00000360: f3ec 0139 0024 c6b7 6d31 0ebc 21f3 723b
00000370: 4460 003b f81f 153c d5af dfba 64e9 d8ba
00000380: 3ca2 d53a 00d6 ae3a d164 18bb fe8f be3b
00000390: 6027 ff3b 8d75 6a3b 6cb6 bd39 3a6c b5bb
000003a0: 1eba a9ba 07be 7f3b 83b5 a939 3890 ad3b
000003b0: 1dc1 14bb 2273 253a 0f4d 87bb 92b0 8b3b
000003c0: 871b 3b3c 2a9f 45bb 2d1b 3b3c c4e0 36bb
000003d0: 4fa3 47ba b6a1 8c3b 1e02 83bb bd55 9e3b
000003e0: 060f a339 4eaf f13a 9164 e7bb 9afc 0fbb
000003f0: 1bca c73b b8d2 21bb 5794 fdba cfdd ccbb
0.0050396835 -0.0046180678 -0.003113001 0.00086507073 -0.0005841852 0.0051752077 -0.0007372176 0.0042262506
0.00018543331 0.008605485 0.0014405053 -0.003237923 -0.0015326829 -0.0017285964 -0.004602644 -0.006317019
-0.0059558335 0.0003824766 0.002365633 0.0046320455 0.0014462876 0.0017368041 -0.0037059686 0.004131233
0.008616845 0.0005685656 -0.001658479 -0.00317623 0.0036108652 0.0032026914 -0.0038934336 -0.0014773693
0.0016448457 0.0011326066 -0.000111028174 -0.00086255244 -0.014155891 0.0046695056 -0.0050056907 0.005731144
0.003451193 0.012548591 0.0010774836 -0.008346559 0.005952214 0.0049256673 -0.003851908 -0.0038590939
0.0033982017 -0.00015468603 0.005218407 -0.00068286434 -0.0010741182 -0.0089530805 -0.0064786817 0.0048324172
0.0023562158 0.0004994335 -0.0010195666 -0.006020608 -0.0062493887 -0.007903211 -0.00062602136 -0.0035872888
-0.00037372095 0.0031328965 -0.012133378 0.0032108559 0.00783264 0.005496628 0.007142196 -0.00989915
0.0014345523 0.0017535355 0.0008943259 0.0059229876 0.0022326307 -0.0024234485 0.0037898587 -0.0010516744
-0.0046087545 0.000600217 -0.0069015417 0.00047531663 0.00938362 0.009239257 0.0039366335 0.0006345574
-0.0014202383 0.005119945 0.0073260996 0.0030029356 -0.0020051452 0.0027727073 0.008345104 -0.0010521075
0.006523204 -0.0055341986 -0.010825658 -0.0067976653 0.0045036073 0.006032082 -0.007376432 0.0006849483
0.0012539646 0.006991075 -0.004920327 -0.00689557 -0.0052313693 -1.4235717e-05 -0.0033453444 0.0067170104
-0.001255096 -0.0040396084 0.0047217603 0.002591218 -0.0062429113 0.004038115 0.002318887 0.0012660647
0.0039397664 -0.0042653563 -0.00321915 0.0006542355 -0.001267787 0.005158876 0.0066065695 0.0029880735
0.0016807698 -0.0048333528 -0.00429004 0.001966447 0.0001664454 0.003169882 -0.00078227115 -0.0032509887
0.001073222 0.003723359 0.006316236 -0.005969886 -0.0050378465 -0.00096517673 0.0034822316 0.0046600443
-0.0073055406 -0.005164331 0.0015241272 0.0008706694 -0.0014180902 0.0035622537 -0.002362692 0.0024469486
0.00020118558 -0.010771711 -0.0009392871 0.0014013561 -0.0025671213 0.0056702616 -0.0007240354 -0.0064718327
0.0030680755 -0.006448175 -0.001895326 -0.0031620984 0.008092445 0.00354708 -0.008524975 -0.0070858435
-8.747782e-06 -0.0070277057 0.0073640123 -0.007079151 0.009233612 0.007097229 0.0034649465 -0.005528665
0.009539887 -0.010085853 0.0074517555 -0.0030685402 -0.002927329 -0.008115833 0.0041907155 0.0048939586
-0.0034368993 -0.0068413564 -0.0063094115 -0.005227886 8.194511e-05 -0.0046809744 0.0021175363 0.0008765339
0.0051098727 0.00052864687 -0.0066841007 -0.004877337 -0.009604319 -0.0036410417 -0.0009823652 -0.00082080305
0.00074077456 0.0013092294 0.0029232237 -0.0048343665 0.002251616 0.0032348507 0.004277368 0.005553353
-0.002951278 -0.0034332657 0.00049906585 -0.0016421688 0.0066130334 0.0013128081 0.00063341897 0.0015691837
0.00012390669 -2.3620203e-05 -0.008678776 0.0037071186 0.0019588629 0.00910186 -0.0017065952 -0.0016549048
0.001629896 0.0013338923 -0.002325345 0.005815505 0.0077866763 0.0035775632 0.00036184804 -0.0055365833
-0.0012949144 0.0039023177 0.0003236943 0.005296733 -0.0022698112 0.00063114066 -0.004129059 0.004262992
0.011420137 -0.0030154684 0.011420053 -0.0027904967 -0.00076155824 0.0042917384 -0.003998055 0.004831998
0.00031100976 0.0018439086 -0.007061549 -0.002197063 0.006097091 -0.0024692249 -0.0019346577 -0.0062520276

arith.constant1 f4 [2, 32]
00000000: ad91 64be 5ecc b13c ec95 9dbe f170 ebbc
00000010: 6a5c 403e 7b8d bdbe f870 ce3e 9776 af3e
00000020: 113c 323e ae3e 873d 3aa9 8ebc 75dd b4be
00000030: bcbb 4dbe d762 e43d 98c9 a7be 5f37 2dbd
00000040: 236a 443e d970 863e ce39 36be 5a50 51be
00000050: b5f3 5d3e 21f9 573e 4571 b1be aba7 61be
00000060: fe0d eb3c aa06 73be 6ad0 723e e62c 3a3e
00000070: 7bff a53e b835 89be 324b e93d bf27 b43e
00000080: b200 56bd 7ba1 a7be c06e eb3c 9de5 423e
00000090: 754a c93e f538 983d 8998 51be d9e4 e93c
000000a0: a124 b6be a079 543e 8c28 84be be33 923d
000000b0: 3859 9a3e 108b 98bd 942f 0fbe cf21 adbe
000000c0: a543 743e d938 c53e e970 abbe 5096 9ebe
000000d0: 469b 273e eac7 963e e9da 533e 0447 1fbe
000000e0: 8dd0 4fbe b7c8 a7be 2c66 8e3e 602c bc3e
000000f0: eb6a 99be 801a ab3e ac28 293d 98e2 8bbe
-0.22321196 0.021703895 -0.30778444 -0.028740378 0.18785253 -0.37022004 0.40320563 0.34270164
0.17405726 0.06603752 -0.017414678 -0.35325208 -0.20091146 0.11151665 -0.3277099 -0.042289134
0.19181113 0.2625797 -0.17795488 -0.20440808 0.21674998 0.21091129 -0.3465673 -0.22036617
0.028693195 -0.23733011 0.23712316 0.1818119 0.3242148 -0.26798797 0.113912955 0.35186574
-0.052246757 -0.32740387 0.028739333 0.19032903 0.3931462 0.07432739 -0.20468344 0.028551506
-0.3557482 0.20749521 -0.25812185 0.07138775 0.30146194 -0.07448399 -0.13982993 -0.33814856
0.2385393 0.38519934 -0.3348458 -0.30974054 0.16367826 0.29449397 0.20688976 -0.15554434
-0.202944 -0.3277032 0.27812326 0.36752605 -0.29964384 0.33418655 0.041298553 -0.27321315

arith.constant2 f4 [2]
00000000: feb2 0abc 3224 093c
-0.008465527 0.008370446

arith.constant3 f4 [128]
00000000: a540 a1bd 6506 2a3d bd35 e7bc 5a42 3ebc
00000010: f057 f0bb 2dab 3fbc 13b5 b1bd fc35 5b3a
00000020: a3ed d3bd cd75 a2bc ebeb 23bd f3c3 593d
00000030: 4e1e 5f3d 7057 eabd e4c7 0a3c bb22 c0bd
00000040: a459 2d3c 4c0e 4dbc e4e5 b33d 7847 853d
00000050: 187c f23b 23f2 a0bc d63f 113c cb87 fd3d
00000060: d5c6 243d 87eb 863d fbb6 273d fbaa 593d
00000070: 7d7d a1bc f05f 8cbd 9057 023d a117 cb3d
00000080: 9402 b9bb 5d01 23bd 3c65 37bd 44f4 e9bc
00000090: 670f 85bc bb53 16bc b6d9 48bc e670 2cbd
000000a0: c8f1 8d3d caba 633d e6e7 963d b77c d9bc
000000b0: 9c3c ca3d a445 8a3c b145 6a3b 62d9 633c
000000c0: 4f34 51bd c1ae 77bd d0ab f5bc 8fa6 943d
000000d0: 7391 dc3c e769 a03d b1e7 96bb c031 b9bc
000000e0: aca5 1f3e dba6 763c d64a e33c cd1f f03c
000000f0: e023 05be bfd8 643d 5d77 c7bd 18b9 403d
00000100: 3e8f ff3b 7030 5ebd 7115 0fbe 1dd3 45bd
00000110: e911 5e3d 8fbb b0bc 1e26 72bc 628c 82bd
00000120: 8bee 193c 0275 50bd f900 55bb ff90 dcbd
00000130: aaf1 af3d 8673 8d3c 7c1d 96bd f397 0c3d
00000140: 77fc 80bd ba9f e6bc 8649 9cbd 6c0a bc3c
00000150: 57e9 853d 7603 d83d f232 51bd 9440 b7bc
00000160: 9f57 863c 7c24 49bd 5298 0f3d f7fa 88bd
00000170: 4a59 dcbd 3bc3 81bd e3e5 acbb ad44 78bc
00000180: 2d94 67bd 86a0 80bd 57c7 7a3d dc7a abbd
00000190: b199 1dbd fe8b 5f3d fc64 2cbd d4e2 263d
000001a0: b03e 99bc 45b6 75bd dde7 bb3d 5206 e33c
000001b0: e67c 663c 48cf 4cbd 34a8 a7bc 212b d13d
000001c0: ea9f 95bd 430a c83a f570 853c 3660 0dbd
000001d0: a800 afbd 3c76 443d 2454 bd3c 06a9 f5bc
000001e0: f2c7 4fbc 4aaf 49bc 167d 433d bca1 0d3d
000001f0: 55b2 1a3c bc1e 113c d8de 74bd dcb4 203d
-0.07873658 0.041510005 -0.028223867 -0.011612499 -0.0073347017 -0.011698526 -0.08677115 0.00083622313
-0.1034806 -0.019831562 -0.04001991 0.053165387 0.05447226 -0.11442459 0.008470509 -0.09381624
0.010580454 -0.012515616 0.087840825 0.06507772 0.007400047 -0.01964671 0.008865317 0.12379416
0.040228684 0.06587892 0.04094599 0.053141575 -0.019713158 -0.06854236 0.031821787 0.09916616
-0.0056460593 -0.039796222 -0.04477428 -0.028558858 -0.016242696 -0.009175236 -0.012258938 -0.042099856
0.06930882 0.055598058 0.0736845 -0.026548726 0.098748416 0.01687891 0.0035747106 0.013906809
-0.051075276 -0.060469393 -0.029989153 0.07258331 0.026924824 0.07832699 -0.0046052565 -0.02260673
0.15590543 0.01505443 0.027745645 0.029312039 -0.13001966 0.055870768 -0.097395636 0.04705152
0.007799058 -0.054245412 -0.13973023 -0.048297036 0.0542163 -0.02157381 -0.014779596 -0.06374432
0.009395252 -0.050892837 -0.00325018 -0.10769843 0.08591016 0.017267 -0.073298424 0.034324598
-0.06298154 -0.028152335 -0.07631211 0.022954188 0.06538647 0.10547535 -0.051073976 -0.02236966
0.016399203 -0.04910706 0.035057373 -0.06688493 -0.10759218 -0.063360654 -0.005276428 -0.015153092
-0.056537796 -0.062806174 0.06122526 -0.08373043 -0.03847665 0.054576866 -0.042088494 0.040743664
-0.01870665 -0.05998828 0.09175084 0.027712975 0.014067864 -0.050002366 -0.020465948 0.10213304
-0.07305892 0.0015261847 0.016289214 -0.034515582 -0.08545047 0.04796432 0.02311141 -0.029987823
-0.012681948 -0.012309859 0.047726713 0.03457807 0.009441932 0.008857425 -0.059782833 0.03923498

arith.constant4 f4 [64]
00000000: 1ddf cc3d b5c3 283d be5b 723d 51b2 573e
00000010: d3a2 64be f7ed 863c eda1 e63c c57a 7f3d
00000020: 33dc 613e 49ce 1a3d 2fdc e6bd c6bc dd3d
00000030: 3c77 b6bc fd96 4b3e 9cae 31be 4c81 fcbd
00000040: c86b 673e 1f22 80bd 8935 afbd 454b 14be
00000050: 7326 933b 262c 673e 08fb e1bd 722a 4abd
00000060: 3d5b 483d 361a b5bd 74e5 8dbe 2785 303d
00000070: b620 92bd e8b0 063e 13d6 e1bd 1f34 05be
00000080: abdb cf3d 921d dbbc 4ad7 c83c e087 643e
00000090: d345 593d cfc8 633d 7a2c 6a3c 30e6 9bbd
000000a0: 8951 723e 0b7f 403e b044 bdbd 7306 873e
000000b0: d833 733e 7801 c83d 95f6 853d d298 4c3d
000000c0: 728c 5fbe 04a0 dbbd da3c 853d 9313 56bc
000000d0: fdfa 833d ceb6 3abb b388 493e 7d00 c0be
000000e0: 0c98 043d 5a9b 55be 349f e8bc 2955 553e
000000f0: c42f 4b3d ac06 21be 72f3 9abd ff17 8f3d
0.10003493 0.041202266 0.059169523 0.21064116 -0.22327738 0.016470892 0.028153384 0.06237294
0.22056656 0.037794385 -0.112724654 0.10827021 -0.022273652 0.19881816 -0.17351764 -0.12329349
0.22599709 -0.06256508 -0.08555133 -0.14481838 0.0044906675 0.22575435 -0.110342085 -0.049356885
0.048915137 -0.0884289 -0.2771412 0.043095734 -0.07135145 0.13153422 -0.110271595 -0.13008164
0.1014932 -0.026747499 0.02451672 0.22317457 0.053045105 0.055611428 0.014292831 -0.07612264
0.23663916 0.18798463 -0.09241617 0.26372108 0.23750246 0.09765905 0.065411724 0.04995043
-0.2183092 -0.1072388 0.06505747 -0.01306619 0.064443566 -0.0028490308 0.19681053 -0.37500373
0.032371566 -0.20860043 -0.028396226 0.20833267 0.0496061 -0.15725201 -0.07565965 0.06986999

arith.constant5 f4 [32]
00000000: bdba 073c 9332 57bc 18e3 0c3c f229 eb3b
00000010: 2be9 f7ba 37c7 e63b e641 3dbc d90c 13bc
00000020: 3260 2abc a482 ba3b 3dc6 3fbc ff48 af3b
00000030: c564 393c 25ce c0bb 2ca5 233c fe2c 4abb
00000040: aa52 12bb 4055 f338 5f7a 223a 3dad 31bb
00000050: 1afa 1fbb d38a 903a b537 053c 0196 773b
00000060: bf3a efbb f123 5ebb ce32 91ba aa70 333c
00000070: daa7 25bc 4336 893b ee46 03bc 7510 2abc
0.008284268 -0.013134616 0.008599065 0.007176631 -0.0018914094 0.007042791 -0.011551356 -0.008975231
-0.010398911 0.005691843 -0.0117049785 0.005349278 0.011315529 -0.0058839493 0.0099881105 -0.0030849571
-0.0022327104 0.00011603022 0.0006198044 -0.0027111315 -0.0024410547 0.0011027701 0.008130957 0.0037778618
-0.0073007043 -0.0033895934 -0.0011077763 0.010952154 -0.01011082 0.0041873767 -0.008012516 -0.0103799

tfl.pseudo_qconst i1 [64, 128]
00000000: 1a66 e197 7704 04a2 6239 a153 dffa 29df
00000010: 208f 08e7 76e3 2ba7 0169 1322 b8ee d497
00000020: 25ab 409c 39e2 5dc5 e65a e2e4 beef cba8
00000030: acad 11fc 2640 f417 b4c7 7132 eb92 69a6
00000040: 5b26 ba12 ad27 e42f 4e2d 1d54 e651 78af
00000050: a285 a83b 23b8 9fc8 1fcd 2051 4db2 2381
00000060: ae22 b825 6b11 e80c d4e3 e75a f011 cfb2
00000070: f1bd 63a1 eaa4 6a9e 7008 07f1 aa6d 9367
00000080: 8f93 c00b 13a5 370f 663e f7cc 558b 8dff
00000090: 37be fbef 5113 e005 0744 c756 a027 4fec
000000a0: 38a5 5013 8b79 1481 a12b 459c 82cf 4290
000000b0: 24a3 bdeb eae5 e3a5 1446 8bbf 1e72 5ba6
000000c0: f702 9ad2 c5ea cf8b 575e 5802 61ec f13d
000000d0: 7bef 5785 b678 2b59 5e1c 08c8 e43e 1fbe
000000e0: c1cf 0328 b46c 2f6a 4b59 048f e879 5671
000000f0: e79d be8c 1c21 88fd 0b46 e29b 49b6 8468
26 102 -31 -105 119 4 4 -94
98 57 -95 83 -33 -6 41 -33
32 -113 8 -25 118 -29 43 -89
1 105 19 34 -72 -18 -44 -105
37 -85 64 -100 57 -30 93 -59
-26 90 -30 -28 -66 -17 -53 -88
-84 -83 17 -4 38 64 -12 23
-76 -57 113 50 -21 -110 105 -90
91 38 -70 18 -83 39 -28 47
78 45 29 84 -26 81 120 -81
-94 -123 -88 59 35 -72 -97 -56
31 -51 32 81 77 -78 35 -127
-82 34 -72 37 107 17 -24 12
-44 -29 -25 90 -16 17 -49 -78
-15 -67 99 -95 -22 -92 106 -98
112 8 7 -15 -86 109 -109 103
-113 -109 -64 11 19 -91 55 15
102 62 -9 -52 85 -117 -115 -1
55 -66 -5 -17 81 19 -32 5
7 68 -57 86 -96 39 79 -20
56 -91 80 19 -117 121 20 -127
-95 43 69 -100 -126 -49 66 -112
36 -93 -67 -21 -22 -27 -29 -91
20 70 -117 -65 30 114 91 -90
-9 2 -102 -46 -59 -22 -49 -117
87 94 88 2 97 -20 -15 61
123 -17 87 -123 -74 120 43 89
94 28 8 -56 -28 62 31 -66
-63 -49 3 40 -76 108 47 106
75 89 4 -113 -24 121 86 113
-25 -99 -66 -116 28 33 -120 -3
11 70 -30 -101 73 -74 -124 104

tfl.pseudo_qconst1 i1 [128, 256]
00000000: fc29 3d2c 67ab cc41 a4bc d661 a5d1 51d6
00000010: eeab 1a85 5267 5b61 06d7 f893 4b86 c112
00000020: 5fcc 77c7 5601 e95f 1ee9 2c5f 3757 b3b5
00000030: 2279 1ce6 f230 24b4 34cc 1658 a8d3 e414
00000040: 9845 5455 0593 37d4 8e51 3558 baca 67dc
00000050: 4615 65d0 6a6d e179 f0e8 d9bc d3f0 93b6
00000060: 6abf fd03 e159 a00e 7fae 9e1b 3422 e57b
00000070: 9640 d9e2 afb8 bdb4 be65 7923 f06f 6841
00000080: a5c5 0c79 7b73 a477 0037 0f60 aebf 4b7b
00000090: afb3 1a46 148e 5a32 f06c 85ef 6069 73d0
000000a0: 66cb 4cef dddf a95e 0166 cde2 9a28 8ffc
000000b0: c34f 25fd bf00 4bed 605a 2ce0 b8b1 f1ac
000000c0: f273 4396 d3e8 3b47 f7c1 705b 3761 6f68
000000d0: 67fc 5ceb cc65 b102 9e48 6fb6 df18 0b9b
000000e0: 3481 4c10 33f9 1524 2af1 c2f2 7dd3 0110
000000f0: 21b8 52fa 848e 6bbf 5a7b 8af1 9ad0 c235
-4 41 61 44 103 -85 -52 65
-92 -68 -42 97 -91 -47 81 -42
-18 -85 26 -123 82 103 91 97
6 -41 -8 -109 75 -122 -63 18
95 -52 119 -57 86 1 -23 95
30 -23 44 95 55 87 -77 -75
34 121 28 -26 -14 48 36 -76
52 -52 22 88 -88 -45 -28 20
-104 69 84 85 5 -109 55 -44
-114 81 53 88 -70 -54 103 -36
70 21 101 -48 106 109 -31 121
-16 -24 -39 -68 -45 -16 -109 -74
106 -65 -3 3 -31 89 -96 14
127 -82 -98 27 52 34 -27 123
-106 64 -39 -30 -81 -72 -67 -76
-66 101 121 35 -16 111 104 65
-91 -59 12 121 123 115 -92 119
0 55 15 96 -82 -65 75 123
-81 -77 26 70 20 -114 90 50
-16 108 -123 -17 96 105 115 -48
102 -53 76 -17 -35 -33 -87 94
1 102 -51 -30 -102 40 -113 -4
-61 79 37 -3 -65 0 75 -19
96 90 44 -32 -72 -79 -15 -84
-14 115 67 -106 -45 -24 59 71
-9 -63 112 91 55 97 111 104
103 -4 92 -21 -52 101 -79 2
-98 72 111 -74 -33 24 11 -101
52 -127 76 16 51 -7 21 36
42 -15 -62 -14 125 -45 1 16
33 -72 82 -6 -124 -114 107 -65
90 123 -118 -15 -102 -48 -62 53

tfl.pseudo_qconst2 i1 [32, 64]
00000000: 33e9 0823 237f 208c 7364 5d97 a66a c564
00000010: cac3 1fc8 1ab4 3b06 b5ba 0ba1 7407 1b97
00000020: 7054 d11b a532 972e cd26 9a3e f7fb c387
00000030: 5d79 1200 8be5 e2d0 11d9 bcf3 4fc3 9e31
00000040: 1729 89c7 3903 c03a e949 2bda 1a1b a22f
00000050: 2982 a7d0 4f81 795e f019 42ac 9aef f14c
00000060: bae8 abae b866 5ad0 e540 04d7 a9c7 b05b
00000070: 87a3 2c2c 7f3b 6cc2 f74e f357 bfea ed69
00000080: 6413 4939 0729 f83d 2170 2f13 9adb a869
00000090: d14e cded 4a8d e0d3 7397 8c64 0bfd f4bb
000000a0: 5d33 937f 090a 65aa 8edf e7b9 7b52 fd14
000000b0: 77df 8a5c bafa eb1b fcd9 1ec6 5990 a34f
000000c0: ec58 ca85 4d61 4cd7 473a f807 7fee 978d
000000d0: dfe9 da90 d1fb bb4d b0fe 9368 b266 182d
000000e0: 652b df0b d89e 4e28 f2c8 9ed8 4753 5653
000000f0: dac1 7815 5ba0 2312 4e7f 0be2 cfeb fcd3
51 -23 8 35 35 127 32 -116
115 100 93 -105 -90 106 -59 100
-54 -61 31 -56 26 -76 59 6
-75 -70 11 -95 116 7 27 -105
112 84 -47 27 -91 50 -105 46
-51 38 -102 62 -9 -5 -61 -121
93 121 18 0 -117 -27 -30 -48
17 -39 -68 -13 79 -61 -98 49
23 41 -119 -57 57 3 -64 58
-23 73 43 -38 26 27 -94 47
41 -126 -89 -48 79 -127 121 94
-16 25 66 -84 -102 -17 -15 76
-70 -24 -85 -82 -72 102 90 -48
-27 64 4 -41 -87 -57 -80 91
-121 -93 44 44 127 59 108 -62
-9 78 -13 87 -65 -22 -19 105
100 19 73 57 7 41 -8 61
33 112 47 19 -102 -37 -88 105
-47 78 -51 -19 74 -115 -32 -45
115 -105 -116 100 11 -3 -12 -69
93 51 -109 127 9 10 101 -86
-114 -33 -25 -71 123 82 -3 20
119 -33 -118 92 -70 -6 -21 27
-4 -39 30 -58 89 -112 -93 79
-20 88 -54 -123 77 97 76 -41
71 58 -8 7 127 -18 -105 -115
-33 -23 -38 -112 -47 -5 -69 77
-80 -2 -109 104 -78 102 24 45
101 43 -33 11 -40 -98 78 40
-14 -56 -98 -40 71 83 86 83
-38 -63 120 21 91 -96 35 18
78 127 11 -30 -49 -21 -4 -45

sequential_1_1/dense_4_1/MatMul i1 [256, 50]
00000000: 962a 7fd2 ea52 1f4b aefe 0c62 0a0f 1d34
00000010: 323a df19 9cc1 1795 ac3d b438 d2e0 4299
00000020: 2583 85f9 4abe 9ce2 e437 e80c 3809 c198
00000030: b854 7127 e013 04a4 8d6e 2e9c 2d3a c8d9
00000040: c5c4 2f39 0658 4815 77de c286 ac40 8104
00000050: 394f dc24 2560 b19c f879 5aae d5d5 8620
00000060: ae24 432e d297 57d4 33e0 202a 1cd9 d9fa
00000070: 91c9 f987 743b f244 f25e c8b2 98e3 a756
00000080: bb1d 88c4 a43c 7213 ca1f eb19 dbaf 8192
00000090: 11cd 8197 ef32 242f 6765 3e83 dcba 8ac4
000000a0: 0d4b c3df d342 a39c 549d ca55 a3f8 193a
000000b0: 066f 2de7 27d0 9782 1f3b 4a7f 0f93 f456
000000c0: cac5 df73 081b 758e 7f10 7ea8 8e73 e595
000000d0: 2419 ee6a 378e 4e00 32e4 f1a6 8fac 9e2a
000000e0: a382 f9c1 4ff1 721b 3867 c8d2 3600 dc03
000000f0: c25e e974 b7cd 24c2 a662 76da 7420 6ac0
-106 42 127 -46 -22 82 31 75
-82 -2 12 98 10 15 29 52
50 58 -33 25 -100 -63 23 -107
-84 61 -76 56 -46 -32 66 -103
37 -125 -123 -7 74 -66 -100 -30
-28 55 -24 12 56 9 -63 -104
-72 84 113 39 -32 19 4 -92
-115 110 46 -100 45 58 -56 -39
-59 -60 47 57 6 88 72 21
119 -34 -62 -122 -84 64 -127 4
57 79 -36 36 37 96 -79 -100
-8 121 90 -82 -43 -43 -122 32
-82 36 67 46 -46 -105 87 -44
51 -32 32 42 28 -39 -39 -6
-111 -55 -7 -121 116 59 -14 68
-14 94 -56 -78 -104 -29 -89 86
-69 29 -120 -60 -92 60 114 19
-54 31 -21 25 -37 -81 -127 -110
17 -51 -127 -105 -17 50 36 47
103 101 62 -125 -36 -70 -118 -60
13 75 -61 -33 -45 66 -93 -100
84 -99 -54 85 -93 -8 25 58
6 111 45 -25 39 -48 -105 -126
31 59 74 127 15 -109 -12 86
-54 -59 -33 115 8 27 117 -114
127 16 126 -88 -114 115 -27 -107
36 25 -18 106 55 -114 78 0
50 -28 -15 -90 -113 -84 -98 42
-93 -126 -7 -63 79 -15 114 27
56 103 -56 -46 54 0 -36 3
-62 94 -23 116 -73 -51 36 -62
-90 98 118 -38 116 32 106 -64
